data.pth (torch, 18218 bytes, 6 tensors)

l1.weight f4 [8, 294]
00000000: 8b6d 3dbe d2cf d83e 8014 bd3e 6a03 d13e
00000010: e09f f63e d165 003f eef3 1abf 31d0 b23f
00000020: 36e6 3a3f c01b 86bf 2f96 993d 2ef6 9d3f
00000030: f373 ac3e cbec 14bf 17aa 14bf 2bc7 843e
00000040: 0347 c63e 52f5 213f 956f e43f 4cb7 0bbf
00000050: 2263 90be 0ddd eabe c031 5fbf 2d95 fdbe
00000060: 3ae7 ba3d 53b9 fa3e a199 1b3f 9b6a 72bd
00000070: 701a 32bd 6fea b8be 4fac 08bc 18be 803c
00000080: 1ace 5ebf 68ce a1bf fd7d a6bf 5a16 34bf
00000090: c030 953f 6b2e bc3f 59ad b53f 8996 2940
000000a0: ecb6 5c3e da35 63bf 2caa 0740 3c0b 50bf
000000b0: ee90 5f3e 987b 7c3f f442 933c 69a7 a23e
000000c0: 6dc3 423f 2699 8fbf 93f7 cebd 131d a1be
000000d0: 98a4 78bf 3be1 b9be df4a d33e 6d9d ccbf
000000e0: 6796 f93e a2c3 a13d 5c53 a03e cfcd e03e
000000f0: 4ea1 38bd f349 a83f b6ea 73bf 2102 65be
00000100: 2018 92be e10c 7ebe 229b 72bf 4b81 80bf
00000110: 19a4 4dbf 8493 183f 2cde 19bf c087 95be
00000120: 22a4 63bf ed31 ebbd 8afe 1c3f 1f63 0a3f
00000130: d59c 86bf 9683 813e 20f0 49bf ad68 16bf
00000140: 63df 95bf 0bf4 23bd 535a 6e3f 8a4b 71bf
00000150: ba51 bfbf 722b 1b40 8707 eb3d 02e3 013f
00000160: a208 9c3f cfaa cbbe d677 c9be aab9 943f
00000170: 3945 4cbf f36b 3a3f e4f3 8a3e 1890 d1bf
00000180: 02a5 37bc 2de4 26c0 3f7f 6cbf 11a4 0440
00000190: 4d0e 9bbe 07b7 823e 1d6a 9abf 1cca 03bf
000001a0: a1e1 3a40 6c6a 10bd ab40 aabd 15fc c1bf
000001b0: 0436 b8bf 2a62 583d 9ce1 b83f 8472 f83f
000001c0: a178 0b3f ccd8 9b3d e6b7 80bc 41ea 5ebf
000001d0: 8676 5fbf 8c9f 61bf fac6 dd3e c041 f13f
000001e0: 631f c03e d625 02bd 1d27 5e3e 2dbc 63bf
000001f0: 1f71 d1bc bf7f b3bd 6152 2d3d 5641 63bf
00000200: a119 d6be 62f7 e33e e7d7 a03d e5d0 f13e
00000210: fdee d7be 213b 5ebf 17e6 2c3e 12cc 1b3f
00000220: 950a b83e f142 2d3e 8513 003e 5c5f f43e
00000230: f553 873f 449e 0fc0 4d68 3cbf d316 b23d
00000240: a195 b6be 8306 0ec0 e4ba 5ebf f5ea 1d3e
00000250: 5a94 fc3e 9003 07bf 9f2e b4bd 0fde 0c40
00000260: 1bab 03c0 e8d8 1c40 6271 0e3f 8899 8f3e
00000270: b363 823e df34 093f 51ba a6be 917d c03f
00000280: 495a 95be 4bdf 5bbf f645 34bf 72a3 4cbf
00000290: 7e61 6ebd 12fe 693d 674a 5dbf 83e1 d1be
000002a0: a15c 0840 06cf 65bf cedf 5ebf dab5 003f
000002b0: 4980 643f 4429 973f a91e 713f d8e0 4b3e
000002c0: e107 81be 423e 61bf 5c31 f43e 52b5 ab3f
000002d0: 1d65 f2be 9e27 0dbd 0021 ebbe 4dc1 bfba
000002e0: c619 613f 7741 c73e deec 7d3f a6af c4bf
000002f0: 4094 49bf d2a1 253e 6794 91bf f8a6 103f
00000300: 9a93 adbf 871d 263f d402 82bd a94b 2abf
00000310: 7cec 1dbe 5534 3a3d 45a2 9f3e 0b76 5dbe
00000320: ebb7 9abe b155 b9be 4ba0 a1be 865e 9c3d
00000330: 7355 123f 0677 413d d1ac 8c3f 712f 813d
00000340: 0d4f a33f 0987 14bf 1633 b8be 5e83 6d3f
00000350: 892a 99bf 7823 8c3f 1fcb ebbe d9a1 a7bf
00000360: 7ed4 3f3f 1ece f43f 66ed 813f 6f6b 8f3f
00000370: 1021 083f b025 0f40 db75 853f a0c0 25bf
00000380: 1b20 7c3f fb6f 7e3e b900 a43f 9593 b43e
00000390: e357 7dbf 504a 883f 53ac 1ebf 4e09 a3bf
000003a0: 88a5 05be 3809 54bd 5350 c93f bdb8 9b3d
000003b0: 74db a9bf d8c1 2bbf b023 063d eddd 233f
000003c0: 46cf 57bf 25cd 823e 69fe 1b40 7756 4c3f
000003d0: 2aee 4e3d 56f6 833f 2e18 9a3f eb6c 013f
000003e0: 1018 5fbf 706b 57bf d23c a13f caf6 dd3e
000003f0: b5e0 aabe f2e3 26bd cad5 9ebe 6ce0 95be
-0.18498819 0.42346054 0.36929703 0.40822917 0.4816885 0.5015536 -0.6052846 1.3969785
0.73007524 -1.0477219 0.07499348 1.2340753 0.33682212 -0.5817382 -0.58072037 0.25933203
0.38726053 0.63264954 1.7846552 -0.54576564 -0.28200632 -0.45871773 -0.8718529 -0.49527875
0.09126134 0.48969516 0.60781294 -0.0591837 -0.043482244 -0.3611636 -0.008341863 0.015715644
-0.87033236 -1.2641115 -1.3007199 -0.70346606 1.1655502 1.4701666 1.4193527 2.649813
0.21554154 -0.88754046 2.1197615 -0.8126714 0.2183263 0.9862609 0.017976262 0.3176835
0.76079446 -1.1218612 -0.10105815 -0.31467494 -0.9712615 -0.3630465 0.4126806 -1.5985543
0.4874756 0.07898642 0.31313598 0.4390702 -0.045075707 1.3147568 -0.95280015 -0.22364093
-0.2853403 -0.248096 -0.94767964 -1.0039457 -0.8032852 0.5960009 -0.6010463 -0.29205132
-0.8892232 -0.11484132 0.61325896 0.54057497 -1.0516611 0.25295705 -0.78882027 -0.5875347
-1.1708797 -0.04002766 0.93106574 -0.9425589 -1.4946816 2.4245267 0.11476045 0.5073701
1.2190135 -0.39778754 -0.3934924 1.161916 -0.79793125 0.7282097 0.271392 -1.6372099
-0.0112087745 -2.6076767 -0.9238166 2.0725138 -0.30284348 0.25530264 -1.2063633 -0.5148027
2.9200213 -0.03525774 -0.08313116 -1.5155054 -1.4391484 0.05282799 1.444385 1.9409947
0.5448094 0.0760971 -0.01571269 -0.87076193 -0.8729023 -0.88134074 0.4331587 1.884819
0.37523946 -0.031774364 0.21694608 -0.8895901 -0.025566636 -0.087646 0.04231489 -0.8877157
-0.41816428 0.44524676 0.0785368 0.47229686 -0.4217452 -0.86808974 0.16884647 0.6085826
0.35945573 0.16920067 0.12507446 0.47729003 1.0572497 -2.2440348 -0.7359665 0.086957596
-0.35661033 -2.2191474 -0.8700392 0.1542166 0.49331933 -0.5273981 -0.08797955 2.2010534
-2.0573184 2.450739 0.5564176 0.28046823 0.2546669 0.535963 -0.32564023 1.503832
-0.29170445 -0.85887593 -0.7041925 -0.799369 -0.058198445 0.057127066 -0.86441654 -0.40992364
2.1306536 -0.8976902 -0.8706025 0.50277483 0.8925825 1.1809468 0.9418741 0.1990999
-0.25201324 -0.8798562 0.47693908 1.341471 -0.47342768 -0.03446161 -0.45923615 -0.0014629752
0.8792995 0.38917133 0.99189556 -1.5366104 -0.78741837 0.16175011 -1.1373414 0.56504774
-1.356067 0.64888805 -0.06348196 -0.665217 -0.15422243 0.045460064 0.3117849 -0.21627061
-0.30218443 -0.3619819 -0.31567606 0.076352164 0.57161635 0.04723265 1.0990239 0.06307877
1.2758499 -0.5801855 -0.35976475 0.92778575 -1.1966106 1.0948324 -0.46053407 -1.3096267
0.7493361 1.9125402 1.0150573 1.1204661 0.5317545 2.2366753 1.0426592 -0.6474705
0.9848649 0.24847405 1.281272 0.35268846 -0.9896223 1.0647678 -0.61981696 -1.2737215
-0.13051426 -0.051766604 1.5727638 0.076035954 -1.3270097 -0.6709266 0.032748878 0.64010507
-0.8430065 0.25547138 2.437403 0.79819435 0.0505201 1.0309551 1.2038629 0.5055682
-0.8714609 -0.8414831 1.2596686 0.43352348 -0.33374563 -0.04074473 -0.31022483 -0.29272783

l1.bias f4 [8]
00000000: 30af 4d3f 9d6d 873f c421 453f a621 a23f
00000010: 5f97 343f d388 7c3f 31d8 513f 28f6 3d3f
0.8034544 1.0580326 0.7700465 1.2666519 0.70543474 0.9864628 0.81970507 0.7420373

l2.weight f4 [8, 8]
00000000: 6d72 80bf d370 db3e 27d9 2740 7217 1cbf
00000010: 6789 e73e 516a ea3f 090a df3f 8737 d33f
00000020: e5d0 01bf 2a27 de3f a767 1fc0 a5df fa3f
00000030: 274c 2cc0 a416 1e3f f5a0 0e3f b9d1 3cbe
00000040: d000 c03f dafe 0abf 3165 0c40 fad5 3340
00000050: 2c30 25bf ae15 adbf f5aa 303f e114 c73e
00000060: 6a0a 4240 6f2d f8be cd25 9abe ded5 d7be
00000070: 86cd f93f bbbd 2740 6ee2 cd3f 0916 3ebf
00000080: 4111 ddbf 03b9 f03f 4632 6c3f 5141 c53e
00000090: e457 9f3f 4eae 3d40 40d7 aebf d493 28bf
000000a0: 0407 cdbe f904 dd3e 3a21 2740 4979 4e3f
000000b0: 4155 c4bf 754a a03f e5c6 29bf 0cd6 1440
000000c0: 41fb 9f3f c64f c63f e42a 2abf 963c 953f
000000d0: aedd 863f 278c 87bd eacf debf f82a d53e
000000e0: 7471 bbbf 7b36 1240 1592 b2be e1ca bbbf
000000f0: 4026 7e3f 5e68 b0bf f578 ec3f 63e6 3440
-1.003492 0.42859516 2.622629 -0.60973275 0.45222017 1.8313695 1.7424937 1.6501321
-0.5070937 1.7355702 -2.4907014 1.9599501 -2.692148 0.61753297 0.5571435 -0.18439378
1.5000248 -0.5429512 2.1936762 2.809935 -0.6452663 -1.3522241 0.6901086 0.38883117
3.0318856 -0.48472163 -0.30106965 -0.42155355 1.9515846 2.6209552 1.6084726 -0.7425237
-1.727089 1.8806461 0.9226421 0.38526395 1.2448697 2.9637637 -1.3659439 -0.6585057
-0.40044415 0.43167856 2.611403 0.80653816 -1.5338517 1.2522722 -0.66319114 2.3255644
1.2498552 1.5493095 -0.66471696 1.1659114 1.0536401 -0.06618529 -1.74072 0.41634345
-1.4643998 2.2845752 -0.34877077 -1.4671289 0.99277115 -1.378185 1.8474413 2.8265617

l2.bias f4 [8]
00000000: 24d1 063d 54e3 aa3f 8007 193f 2df6 803f
00000010: a25e 8e3e 7405 44be 0791 db3e 44ce 543f
0.032914296 1.3350625 0.5977707 1.0075127 0.27806574 -0.19142705 0.42884085 0.83127236

l3.weight f4 [43, 8]
00000000: 82e5 a4bf 0f9d bcbf ea37 46c0 98b2 4dbf
00000010: df2c 343f df81 70c0 6281 4e3f 9a85 bd3e
00000020: a071 58bf 5b30 eabf c419 2d3f 0e53 ffbf
00000030: b912 81c0 b7de 4a3f 8528 143f 6fd9 aa3e
00000040: 58bf b6bf 8da4 443e e3f7 4d3e ced5 1dbb
00000050: f0e6 10bf 6f11 c0bf 494d 0f3f 8af8 25bf
00000060: e95c 923e b246 31c0 e8b5 45bf 1154 ae3d
00000070: b302 ff3e 9e1f e2bf 021e f2bf 2c88 7bbe
00000080: fe4c 293f 182c cbc0 d23c b73f 7c38 e0be
00000090: 4c8f 15c0 d3f7 37c0 f458 2ebf 642e eb3e
000000a0: ecd0 2a3f 94a6 edbe 60fa 6a3f 92ac 32c0
000000b0: c9b0 3dbc 2a78 993f 1ac7 3cc0 d2d2 bfbf
000000c0: 966e f0be cd5a b4c0 ed13 f6bf 7b63 0dc0
000000d0: 4393 283f 3bab 633f 0be7 1fbe f366 93bf
000000e0: 3438 a33e b5d0 823e d78a 4bbf e45b 833f
000000f0: 4be9 c3bf ff1d 01be c54b ddc0 3a27 cdbe
00000100: d212 98bd 1227 7dc0 8634 1ac0 5af0 2fc0
00000110: b0ce ccbe fd6b 26bf 710b 28bf eb47 843f
00000120: b795 3d3f 8a73 23c0 1ab5 6ac0 3cf2 e63e
00000130: ad78 6c3f efca 63c0 f9d7 d1c0 9f90 223f
00000140: 901d 4fbe 3cfa 16c0 e1e6 e8bf 4f6a cabd
00000150: 5301 39c0 9db7 1abf 2458 94bd 8a20 883f
00000160: eb6b 7fbf 233d 723f 56e3 2a3f 63b7 94c0
00000170: 8b64 16c0 cf62 f73a 3699 d5be 672e 38be
00000180: 5189 1140 5608 8dbe 1478 623e 1733 1ac0
00000190: e0b0 743f 5bf4 13c1 9869 84bf 8152 ca3f
000001a0: f8fe 8dc0 dbc3 f43f d700 bb3f 69da 0fc0
000001b0: 4ee3 73c0 5c00 85bf bdaf 593f 645b 85c0
000001c0: 4480 0c3f 6150 80bf f67c 3dbf 7fca 6ac0
000001d0: fde7 19c0 6ace a13e 72c2 48c0 e19d aa3f
000001e0: 9f8f 6e3e 1b6a 95c0 dd39 bdbf a975 b7bf
000001f0: 0d80 363f 945a d33f aacd 8cc0 e838 97bf
00000200: 6d13 ac3e 2494 3a3e 70c5 dac0 b0ab 08bf
00000210: 5da2 d03f 123a a1c0 9962 cbbf d8df 523d
00000220: 9ebc adbe 2c59 7bbf 2fe3 1ac0 6011 0fbe
00000230: 5dd1 793f ff2e c1bf d656 963e 7bad 18c0
00000240: ce37 233f 92d9 afc0 47d9 92bf d6bb 663f
00000250: 18bd f8be 44ec b0c0 3099 5fbf 945c 213f
00000260: 6e33 51bf 4e03 413e cfc6 e0c0 4463 68c0
00000270: 7a2c 953c 0d0c 873f 64f4 1c3e 7387 9abe
00000280: 4e54 ccbf 4745 cfbf 93d5 56bf d1ed 29c0
00000290: 27de 053e 172c debe 64b4 503f a0fd 26be
000002a0: 02e3 993e 1500 e7bf b066 30c0 bbf2 a2bf
000002b0: 86e4 40bf 91e6 6abe bd0f afc0 a236 9a3f
000002c0: 0f49 9ebe 252d dc3d 861f e2bd e530 ae3e
000002d0: d893 6abf aeaa b23d e8bb 3ebf d568 2abf
000002e0: b8b5 82c0 60b5 b93f b0ac 313f ab12 89c0
000002f0: cd97 e93e dfc2 dfbe afe5 b03e f534 08c0
00000300: acf8 ebbf 6aaf cb3f 8734 1dc0 d138 4cc0
00000310: 733f 403e a28b 05c0 7212 0bbe f774 e83e
00000320: 32bf 573f b221 19c0 91da 613e f222 073f
00000330: 6102 93c0 f164 9ebf 5519 9ec0 0265 8a3f
00000340: bcc2 8dbf ec1c 9ac0 8107 4ebf 4056 bcbe
00000350: f790 9fbf 8277 d9be 8c72 8c3f 254b a33d
00000360: d0bd 953e 21a7 b4c0 8625 6ebf 0e3a 313e
00000370: 27a9 933f 9909 18be 12db 72bf 2404 56c0
00000380: 4299 55be 8c34 993f 5afb 69c0 340c 39bf
00000390: 5a30 403d fcb0 cb3e 9fb4 eabf 93b0 0ebf
000003a0: 367f 9ebf 88b9 4fbf d90c 6c3f b95f 51c0
000003b0: 476e 54bf b3b3 ab3f 1fb3 e23e 3b62 11c0
000003c0: 7ea0 ea3d 93ee cfc0 17d4 083f 811a 31bf
000003d0: 123f dfbf a1e4 9d3f 9650 43bf ba19 87bf
000003e0: 6ac6 64c0 60da a5c0 efb5 dabf 5698 c93f
000003f0: 8ffb 55bf a06d 38c0 61fb 253f 274a adbe
-1.288254 -1.473543 -3.0971627 -0.8035064 0.7038097 -3.7579267 0.8066617 0.37015992
-0.8454838 -1.8296007 0.6761744 -1.9947221 -4.0335355 0.79246086 0.5787433 0.33369014
-1.4277143 0.19203396 0.20114093 -0.0024083736 -0.5660238 -1.500532 0.559773 -0.64832366
0.2858651 -2.76994 -0.7723069 0.08512128 0.49806747 -1.7665899 -1.8915408 -0.24563664
0.66133106 -6.3491325 1.4315436 -0.43793094 -2.3368711 -2.874501 -0.6810448 0.4593383
0.6672504 -0.46416152 0.9178829 -2.7917829 -0.011577793 1.1989796 -2.9496522 -1.4986212
-0.4695937 -5.636084 -1.9224831 -2.2091968 0.65849704 0.8893315 -0.1561548 -1.1515793
0.31878817 0.25549856 -0.7950873 1.0262418 -1.530557 -0.12609099 -6.915499 -0.4006899
-0.07425465 -3.9555097 -2.4094558 -2.749045 -0.4000144 -0.6500853 -0.6564246 1.0334448
0.7405657 -2.553927 -3.6673036 0.45106685 0.92371637 -3.559261 -6.557614 0.63501924
-0.20226121 -2.359023 -1.8195459 -0.09883558 -2.8907058 -0.6043642 -0.07243374 1.063493
-0.99774045 0.9462454 0.6675314 -4.647386 -2.3498867 0.0018874052 -0.41718453 -0.17986451
2.2740061 -0.27545422 0.22116119 -2.4093683 0.9558239 -9.247157 -1.0344725 1.5806428
-4.437374 1.912227 1.4609631 -2.2477057 -3.8107486 -1.0390735 0.8503378 -4.167406
0.5488322 -1.002453 -0.740188 -3.6686094 -2.4047844 0.31602794 -3.136868 1.3329431
0.23296975 -4.6692023 -1.4783283 -1.4332782 0.7128914 1.6512017 -4.4001055 -1.1814241
0.3360857 0.18220574 -6.8366013 -0.53386974 1.6299549 -5.0383387 -1.5889465 0.051483005
-0.33932966 -0.9818294 -2.4201162 -0.13971472 0.9758509 -1.5092467 0.29363126 -2.3855884
0.63757026 -5.495309 -1.1472558 0.90130365 -0.48581767 -5.528841 -0.8734312 0.6303189
-0.817191 0.18848917 -7.0242686 -3.6310587 0.018209685 1.0550553 0.15327603 -0.30181465
-1.5963228 -1.6193017 -0.8391964 -2.6551402 0.13073026 -0.43393013 0.81525254 -0.16307688
0.30056006 -1.80469 -2.7562675 -1.2730325 -0.753487 -0.22939517 -5.470671 1.2047923
-0.30915114 0.10750798 -0.11041169 0.3402168 -0.9163184 0.08723961 -0.7450547 -0.6656621
-4.0846825 1.4508476 0.69404125 -4.283529 0.45623627 -0.43703362 0.34550235 -2.1282322
-1.8435264 1.5912907 -2.456331 -3.1909678 0.18774204 -2.0866475 -0.13581255 0.45401737
0.84276116 -2.3926816 0.22056033 0.527877 -4.5940404 -1.2374555 -4.9405923 1.0812075
-1.1075053 -4.8160305 -0.804802 -0.36784554 -1.2466115 -0.4247399 1.0972457 0.07973317
0.29246378 -5.6454015 -0.93026006 0.17307302 1.1535996 -0.14847411 -0.94865525 -3.3440027
-0.20859244 1.1969161 -3.6559663 -0.72284245 0.04692111 0.39783466 -1.8336371 -0.5573818
-1.2382572 -0.81142473 0.92207104 -3.2714674 -0.8298077 1.3414215 0.44277284 -2.2716205
0.11456393 -6.497873 0.53448623 -0.69181067 -1.7441123 1.2335397 -0.7629484 -1.0554726
-3.5746102 -5.182907 -1.7086772 1.5749614 -0.8358697 -2.881691 0.648367 -0.33845636

l3.bias f4 [43]
00000000: 1573 0ebf f5db a6bf 5475 d73e 6b44 b1bf
00000010: b53c 6fbf a2e0 533f f942 7fbe 699f 3abf
00000020: 28bb 9abe f4f2 e03e 96ea dfbe eb62 0bbf
00000030: 2339 ea3d f3db 623e c0dc 62bf 2c2e 0dbf
00000040: 56b2 f13e 8685 25bf 2b45 2b3f 42be 82bf
00000050: 5e4d 4ebf 2271 793d 6848 8e3e 5969 6c3d
00000060: 42bb 643f 4726 d13e 013d 81bf ebec ec3c
00000070: ed06 85be 1aaf 26be 5acb 9cbf cdfa a83e
00000080: fb27 96be 4d0b e9bf 9e72 07bf 242d 8fbe
00000090: 5e52 1bbf 781f ddbd 65ee 30be 855a a2bf
000000a0: d049 fcbf a81f 3dbf 2e98 e7be
-0.5564435 -1.3035876 0.42081702 -1.3849005 -0.93452007 0.8276464 -0.24927892 -0.7289949
-0.30220914 0.4393536 -0.43733662 -0.5444781 0.11436679 0.22154216 -0.8861809 -0.5514858
0.47206372 -0.64656866 0.66902417 -1.0214312 -0.805868 0.060898907 0.27789617 0.057717655
0.8934823 0.40849516 -1.0096742 0.028921565 -0.25981846 -0.16277733 -1.2249558 0.33003846
-0.29327378 -1.8206574 -0.52909267 -0.27964127 -0.6067256 -0.10797018 -0.1727844 -1.2683874
-1.9710026 -0.7387643 -0.4523329
